prerain/model.tflite (tflite, 1984 bytes, 3 tensors)

arith.constant f4 [1, 10]
-2.7098567 -2.2284272 -2.9636135 0.28020224 1.0359637 -2.4928956 0.49621883 -4.4504404
0.906968 0.913522
00000000: 4b6e 2dc0 8d9e 0ec0 d8ab 3dc0 ab76 8f3e
00000010: 759a 843f 9a8b 1fc0 6510 fe3e 026a 8ec0
00000020: 0e2f 683f 94dc 693f

sequential_6_1/dense_12_1/BiasAdd/ReadVariableOp f4 [10]
0.34866375 0.89029056 -0.4640544 -0.36222377 0.709345 0.66079795 0.10789315 1.0036966
0.6803539 -0.15321892
00000000: 0e84 b23e 15ea 633f 8a98 edbe 6575 b9be
00000010: a297 353f 0e2a 293f 15f7 dc3d 2179 803f
00000020: ac2b 2e3f 6ce5 1cbe

sequential_6_1/dense_12_1/MatMul f4 [10, 5]
-0.25132647 0.36588818 0.48451158 -6.4845066 0.052731827 -0.28604582 -2.3783562 -0.039728366
-0.019328257 -0.15054063 3.9305124 0.12148749 0.036792386 0.45429742 -0.028438032 -0.07529487
-0.32955256 0.023067847 -0.22949566 0.25937462 -1.3529768 0.7983812 0.37818065 0.7278493
-0.09573234 -0.7207643 -0.089588076 0.0038023347 -5.428322 0.008247228 -0.3334391 -0.16739683
-0.43679464 0.45807222 0.32473633 -0.61070794 -3.9009192 0.1713191 0.5757018 0.052457348
-1.0201279 0.6311627 0.087374285 0.4731829 -0.061082646 -0.4646812 -0.05643186 0.9159132
-0.17151931 -0.106575154
00000000: ddad 80be b255 bb3e e711 f83e 1481 cfc0
00000010: 54fd 573d 9974 92be fd36 18c0 36ba 22bd
00000020: 4b56 9ebc 5327 1abe 848d 7b40 6fce f83d
00000030: 9db3 163d ac99 e83e e0f6 e8bc 3234 9abd
00000040: 1dbb a8be c8f8 bc3c e900 6bbe c0cc 843e
00000050: 582e adbf b662 4c3f e5a0 c13e 5554 3a3f
00000060: 510f c4bd 0284 38bf f479 b7bd 9730 793b
00000070: d0b4 adc0 621f 073c 88b8 aabe 136a 2bbe
00000080: 8ca3 dfbe 7188 ea3e d743 a63e 5b57 1cbf
00000090: a9a8 79c0 466e 2f3e 3161 133f 84dd 563d
000000a0: 8d93 82bf e193 213f 4af1 b23d 0745 f23e
000000b0: cc31 7abd b2ea edbe 1825 67bd 4a79 6a3f
000000c0: c2a2 2fbe 1344 dabd
